ckpts/isaacs/model/central/central-4000016.pth (torch, 284149 bytes, 14 tensors)

Q1.moduleList.0.linear_1.weight f4 [128, 12]
00000000: bf9d eb3c 6854 e2bd d73f 8dbd 97c7 0fbf
00000010: 31ed 1bbd 608c 5dbc 8e7c 28bc 0ef9 8e3c
00000020: 3be5 36bd 6796 0abc 6213 febc ff56 9abc
00000030: 1967 90be cf87 64bd 4c74 e43b 1622 48be
00000040: f7a3 a3bc df81 863a da6e 67bb 147f 123b
00000050: b72c 06bc f3b7 e1ba 149d f3bb d5ca a7bb
00000060: 3d68 54be 090a 0dbd bde9 b33b 0e77 5cbe
00000070: 2d2f d1bc cbe7 e6ba fe67 1ebb 907f 81bc
00000080: 1187 2dbc 9286 9cbb cbcc 0dbc 3ccb 1cbc
00000090: 31bd 09bd d3ca a03c 1e2b 8e3d 0684 133f
000000a0: 382b ab3d e139 643b 1a94 933c 067a 39bc
000000b0: 88c7 9c3d 3bec ab3c f306 2d3d fd1d 653d
000000c0: 75ce 8dbd 11da f1bd 081a 69bb c629 0fbf
000000d0: 6898 84bd 29bd 223b ed9b 53bc 8d60 233a
000000e0: 116b 62bc 1660 a4bb 578b cfbb ee1f 93bc
000000f0: 58c0 c9bd 3060 49be 8637 35bd add0 fabe
00000100: e7b5 a13c 68b3 733b 54f0 72bb c3bc 483c
00000110: 3fb2 543d 01f6 99bb 0265 543d a0b4 f73c
00000120: 2fcd 01bf ccc5 3a3c fdc5 66bb bc79 16be
00000130: 233e 13bc ed43 283a 6809 abbb e205 0e3c
00000140: 7080 043c 4c42 023c e5db 2b3a 4e86 df3b
00000150: f3f1 633e 4971 473e f08d 263d ca79 c43d
00000160: 7546 1cba 6ac5 933a ea6d d3bb 178d 14bc
00000170: 9a94 503c ca56 a83b e34a c23b 5a83 b83b
00000180: d988 b43d 82f3 a3be 4220 6fbd c7da dc3d
00000190: 9cb7 c83c 31d4 55bb 7553 b13a 51f8 c13c
000001a0: 78a5 bbbd 9942 0a3c 31fa 0fbd 1ec7 eebc
000001b0: 9095 d8bd d89d 363e e570 5c3a 4f7e 083f
000001c0: 3152 b93d da89 8ab8 e06f 1e3c 20ad 7abb
000001d0: 0760 6a3b 5840 12bc 4476 493c 8ea2 103c
000001e0: f60f a03e bf59 723e b5d8 233c 5680 b23e
000001f0: b421 503c dd5d 1dba 7dbc 323b 61be 21bb
00000200: 6d10 273d a651 653b a813 203c ce09 cc3b
00000210: c512 133e 7814 61be cf6a a63a cab4 9ebe
00000220: 4cac c13c 867b 1739 231a 5b3b 5022 273c
00000230: c8f1 9cbd 6800 833a d12f 8abb 7259 1a3c
00000240: fd93 4ebe 531f 403e a4f4 6bbd bb31 ef3d
00000250: 5961 f33c ca7f 32bb a2e8 a5ba b426 353c
00000260: 0f83 a73d 7f05 0e3d bf17 263d a985 f13c
00000270: 6edb 3cbf f485 e33d 77c5 f23c 0d2c 9b3e
00000280: 23ab 773c 99e8 263b 41bd 003b a3f9 6cbc
00000290: 12da 803c b680 b4ba bb40 853b 768a 233b
000002a0: da82 12bd 0e8f e23d 56dd 493c 159f f9be
000002b0: 9e70 46bc be85 9b3b 17fa 023b a0f8 a03a
000002c0: bee5 073a 34c2 e4bb 92ae 98bc d584 89bc
000002d0: 83bc 4d3e 5e05 593d 0df4 d1bc c904 153e
000002e0: b200 fe3c ab8d 16bc 5646 0a3c 45c8 49bc
000002f0: d3e3 0f3c a10e 20bc 496f bbbb 7b0e 273c
00000300: 280e 163d 1a8e d43d 1f6d 483d 696a e23e
00000310: 0d8a 3bbc cbc7 213c 4c21 a9bc 0540 8f3c
00000320: a467 083c e599 8d3c 5000 f93c 86a5 313c
00000330: ddaa 8bbc ba16 e2bd 03a6 103c b712 67be
00000340: db93 13be b878 e839 49f0 39bd 50df 08bb
00000350: 9456 43bc 4114 f439 11da 96ba 01a5 b0bc
00000360: 60b1 21be 05d8 dbbd 3526 c3bb 1b16 27bf
00000370: 0e0f 2fbd ed0d 82bb 5e49 0bbc f674 a7bc
00000380: ad21 f8bc 7ad4 00bc eb53 efbc 1812 0e3c
00000390: 6e0d cdbd accc 823d c609 6b3d 1eb6 23be
000003a0: 0f6e 13bd 8ac4 f5ba b685 d03b c80f 93bc
000003b0: 1e04 40bd 145f b9bb 0536 1abd 5b0a 2ebc
000003c0: bb82 fe3d f1bd 70be 6fa4 8abc 385c 9fbe
000003d0: c522 eabc 90b0 99ba a977 eebb 1f12 57bb
000003e0: 9f9a 9ebd 6b99 7f3b 8263 84bc 51ab c5bb
000003f0: bfaf 14be 5c77 68be 1ec8 a3bb 9df2 963e
0.028761743 -0.110512555 -0.06896942 -0.56163925 -0.038068 -0.013522238 -0.010283602 0.017452743
-0.044652205 -0.00845871 -0.031015102 -0.018840311 -0.28203657 -0.05579358 0.0069718715 -0.19544253
-0.019975645 0.0010262093 -0.0035313875 0.0022353576 -0.008189372 -0.0017220959 -0.0074344967 -0.005120615
-0.20742889 -0.0344334 0.0054905103 -0.21529791 -0.02553519 -0.0017616687 -0.002417087 -0.015807897
-0.010591284 -0.004776784 -0.0086547835 -0.009569939 -0.033627693 0.019627964 0.06941818 0.57623327
0.08357853 0.0034824538 0.018014956 -0.011320597 0.07655245 0.020986667 0.042242955 0.055936802
-0.06924144 -0.11809171 -0.0035568494 -0.55923116 -0.06474382 0.0024831987 -0.012915594 0.0006232344
-0.013819472 -0.005016337 -0.0063337493 -0.017959561 -0.0985114 -0.19665599 -0.044242404 -0.48987332
0.019740058 0.0037185792 -0.0037069516 0.012252036 0.0519278 -0.0046985154 0.05185414 0.030237496
-0.5070371 0.0113996975 -0.0035213225 -0.14694875 -0.0089869825 0.0006418813 -0.005219627 0.008668395
0.0080872625 0.007950377 0.0006555899 0.0068214303 0.22260265 0.19476809 0.040662706 0.09593542
-0.00059614267 0.0011274044 -0.0064523118 -0.009066842 0.012730742 0.005137299 0.0059293373 0.0056308927
0.08815164 -0.3202172 -0.058380373 0.10783916 0.024501614 -0.0032627697 0.00135289 0.023677977
-0.0916242 0.00843873 -0.03515071 -0.02914768 -0.10575402 0.1783365 0.00084091566 0.5331773
0.0904888 -6.60603e-05 0.009670228 -0.0038250163 0.0035762803 -0.008926474 0.012296263 0.008827819
0.31262177 0.23667048 0.010000397 0.34863538 0.012703348 -0.00060030614 0.0027272992 -0.0024680125
0.04078715 0.0034991293 0.009770311 0.0062267547 0.14362629 -0.21980464 0.0012696626 -0.30997306
0.023641728 0.00014446498 0.0033432327 0.010201052 -0.076633036 0.0009994628 -0.004217126 0.0094207395
-0.2017364 0.18761949 -0.057606354 0.11679407 0.029709505 -0.0027236813 -0.0012657831 0.011056591
0.08179294 0.03467321 0.04054999 0.02948268 -0.73772323 0.11109534 0.029635174 0.30307046
0.015116486 0.002546823 0.0019644054 -0.014463815 0.015728984 -0.0013771269 0.0040665544 0.0024954355
-0.03576932 0.11062442 0.012320837 -0.48754182 -0.012111811 0.004746168 0.001998549 0.0012281127
0.00051840756 -0.0069811586 -0.01863793 -0.016786972 0.20091443 0.052983634 -0.025629068 0.14552607
0.03100619 -0.00918905 0.008439621 -0.012315814 0.008782345 -0.009769113 -0.0057200533 0.0101963235
0.036634594 0.10378666 0.04893219 0.4422181 -0.011446488 0.0098742945 -0.02064576 0.017486582
0.008325491 0.017285297 0.030395657 0.0108426865 -0.017049247 -0.11039491 0.008828643 -0.22565733
-0.14411871 0.0004434043 -0.04539517 -0.0020885058 -0.011922497 0.00046554397 -0.0011509081 -0.021563055
-0.1579032 -0.10734562 -0.0059554824 -0.65268105 -0.042738967 -0.0039689452 -0.008501379 -0.020441514
-0.030289495 -0.007863158 -0.02921482 0.008671306 -0.10012327 0.06386694 0.057382368 -0.15987441
-0.035993632 -0.001875059 0.006363596 -0.017951861 -0.046878926 -0.005657086 -0.037649173 -0.010622586
0.124272786 -0.23509957 -0.016924111 -0.31125045 -0.028581033 -0.0011725593 -0.007277448 -0.0032817197
-0.077443354 0.0039001356 -0.01616073 -0.0060323854 -0.14520167 -0.22701782 -0.004998221 0.29481974

Q1.moduleList.0.linear_1.bias f4 [128]
00000000: 3fd2 95bd f44b 0a3e 5a78 6c3e bd5a a9bd
00000010: 7547 1e3e 8a62 c0bc 78d9 2abe aa0f cebd
00000020: fa5a d4bd c5cb 293e 4961 6bbd d91c 81bd
00000030: 5dd4 f5bd 76a5 e03c 44fe 853d 50e0 9c3b
00000040: 8bdd 0fbe bf39 123e ae60 20bc 8ef2 e7bb
00000050: 2b16 6bbd 8060 8b3c 9fb2 45bc 5b49 17be
00000060: a5a3 11bc 0f62 ebb9 7d21 78bd 7bc1 68bd
00000070: 0cf6 aabc 6180 a53c d0c7 1c3e be47 123e
00000080: f0af 503d 2ee0 043d 0721 52bd 4565 cd3d
00000090: 51e6 873d 30a9 01bd eb07 a7bd 166f a0bd
000000a0: 470c d7bc c0f3 133d 0bea 75be a7c3 9f3d
000000b0: 56ed 1dbd aaf4 043d 0406 0bbe 0f6e 21be
000000c0: 4ddb bcbd 3666 333d cd58 0ebd df5d 6fbb
000000d0: e81f ccbd 16ca d6bd c891 ecbd 3f25 5b3c
000000e0: 604f 473e 0d9e 3a3d 3b6d 87bc b375 593d
000000f0: 80f4 f2bb ec3f bd3d 3d01 99bc 37f6 50bd
00000100: 11e2 0bbe 9407 333e 74ad eebd 07a9 983c
00000110: c008 8ebe b4fc 12be 67d0 e23d 3744 79bc
00000120: b063 dbbd 41dd 83bc e4f1 3abd f71a 30bd
00000130: 6021 d1bd 129a 14bd 22e4 9f38 1da8 13bd
00000140: cecc 1f3d 5a68 43bd 9a56 9e3c 46d7 3b3e
00000150: 8eea 41bd 405f ed3c 8beb 12bb 2802 34be
00000160: 1cb8 d1bd a77d 10be 8da9 e33c 0deb 2fbe
00000170: 77d7 f63d 8901 9bbb 8589 003e 00b7 23be
00000180: c64c 81be 4af3 0abd 54b9 e6bd cf9a 0bbe
00000190: 5457 7bbe 3ae1 0cbe d32e f1bd 83cd 893a
000001a0: 4b2c 8e3d c665 bbbd ff2c 0dbe cae4 fdbd
000001b0: e9f6 393c 406d 9fbd 97db 2abe 3b24 a6bd
000001c0: 1384 743d 4944 efbd 481a 9d3a 4b06 ebbc
000001d0: bb30 013e 51bd 2dbe 8b8f d6bd cb8a 54be
000001e0: b134 18be 436c 4dbe 4dc8 1abe 1054 6cbd
000001f0: 0c9d adbd d570 553d 19ce 81bd 65d5 42bd
-0.07315492 0.13505536 0.23092785 -0.0826926 0.15456946 -0.023484487 -0.1668452 -0.100615814
-0.10368915 0.16581638 -0.057465825 -0.063043304 -0.12003396 0.027422648 0.06542638 0.0047874823
-0.14049356 0.14279841 -0.009788675 -0.0070784753 -0.057394188 0.017013788 -0.012066512 -0.14774077
-0.008889114 -0.00044895752 -0.060578812 -0.056825142 -0.020869277 0.020202817 0.15310597 0.1428518
0.050949037 0.032440357 -0.05130103 0.10029081 0.06635726 -0.03165549 -0.08155807 -0.07833688
-0.026250971 0.03612113 -0.24015062 0.078009896 -0.03855642 0.032459892 -0.13576514 -0.1576464
-0.09221516 0.043798648 -0.034752656 -0.0036524457 -0.09967023 -0.104877636 -0.11551243 0.013375579
0.19463873 0.045560885 -0.016531577 0.053090762 -0.0074144006 0.09240708 -0.018677348 -0.05101606
-0.13660456 0.1748336 -0.11654177 0.018635286 -0.2774105 -0.14354211 0.11074906 -0.015214018
-0.10712373 -0.016096713 -0.04564084 -0.042994466 -0.10211444 -0.036279745 7.624204e-05 -0.036048997
0.039013676 -0.04770694 0.019328404 0.18343839 -0.04734283 0.028976083 -0.0022418227 -0.17578948
-0.10240194 -0.14110433 0.027790809 -0.17179509 0.120528154 -0.0047304076 0.1255246 -0.15987778
-0.25253886 -0.033923425 -0.11265817 -0.13633274 -0.24545032 -0.13757792 -0.11776509 0.0010513518
0.06942042 -0.09150271 -0.13786696 -0.12397154 0.011350372 -0.0778451 -0.1668533 -0.08112379
0.05969627 -0.11682946 0.0011985982 -0.028689524 0.12616245 -0.1696675 -0.104765974 -0.2075607
-0.1486385 -0.2006083 -0.15115471 -0.057697356 -0.0847722 0.052109558 -0.06338138 -0.04756679

Q1.moduleList.1.linear_1.weight f4 [128, 128]
00000000: 507f 893d 4bfb e73d 8a95 38be b91d 0d3e
00000010: 2e6e 2ebe 1bbb bebd c0ee b6bd f704 b93c
00000020: e7f0 bbbc 1818 503d 5787 543d 4fda 56bc
00000030: aae8 123d 7472 0d3e 9500 41be f12a 5d3c
00000040: 0a9f 90be 2c8a 23bf c678 95bd 7129 6abd
00000050: ef20 40bd 61b4 c43b 6efe 76bc 3666 9b3d
00000060: f37d 7f3b 46d9 cdbe faf0 963b 2603 11bd
00000070: c8b7 85bd 1a99 a53c ae3d ca3d cd49 bb3c
00000080: 0101 0fbe 81c7 81bc 039a 23be 0390 0a3d
00000090: 6d92 cebc d5a7 0f3e c834 413d 3a2b cf3c
000000a0: 8fcd 78bc 7533 bb3b 91d0 863c 5c26 1dbb
000000b0: 10f0 1bbe 9ebc c53c 6cfc ffbd fdae afbd
000000c0: faf2 f3bd ff15 cb3d 5fc7 0bbd da75 9e3d
000000d0: 5031 193c daff f33d 2393 10bf 50b7 95bc
000000e0: ff85 60bd b560 0c3d ae77 92bd 37a1 fcbd
000000f0: c263 0b3d 458c 5c3d 493a 863d b44a 803d
00000100: f46d 52be 0444 acbd f741 bcbe ace0 22be
00000110: d089 0bbe a8ba fcbc f2a7 0dbd b31a 76bd
00000120: 83bb 8dbe 0506 89be 3ce4 1a3c 1624 13be
00000130: 07b5 13be b165 66be d2e4 56ba d3ea 093e
00000140: 8994 683d f700 653d 208c bd3d f0a2 063d
00000150: 3d03 4b3d 095c 79bb 6627 893d 37e2 09be
00000160: a038 4cbe 728f fdbc 7ea1 9b3d bdd3 c73c
00000170: cc8d 203d 33a4 333e 4d38 f4bc 8eb9 b5bc
00000180: e28a 5a3d 2a13 2ebe bd98 b73e 6fd7 363d
00000190: 50b3 423d 0492 633d d40b 113d aa44 323d
000001a0: 4751 cf3d c756 cf3e 7365 e43b 125a 1ebd
000001b0: cf08 5abd bd9f f03d 176b 3c3e 7142 583c
000001c0: 7038 ee3d 8d6f 203c 3d81 adbd 8e15 883d
000001d0: 91c3 223d 05f5 0e3e c0fa 82bc 99b7 fc3b
000001e0: e62e a03c 8b88 fc3d e6d2 c5bd 817a 463d
000001f0: 79d0 87bd af1f 6fbb 29db 573d 17a9 ffbb
00000200: 3438 0cbe 16a3 aabd e9e2 a9bc 70c1 d83d
00000210: fdb2 3cbe 8de4 4bbe 03ef f03c 3b52 b83d
00000220: 091b 153e 437e 9dbd 735c 9e3c 5da6 463d
00000230: 9d34 b23d 95f2 703d 7cff 12bd 4ab3 30bd
00000240: 8ef1 8e3d 5154 02bd d432 8bbe a8b6 f4bc
00000250: ec2a 0ebe b706 6f3d 9b04 073d 1721 ac3c
00000260: 4c57 7d3d 87ed d63d 52af 763d 0111 973d
00000270: 279f 693d ede0 fbbd 4d9c 5bbc 1289 a8ba
00000280: c1cb 85bd acc1 e5bc d851 7f3d 38cf 70be
00000290: 115f 0a3d fa6c 093e 50f4 9ebd 707f 42be
000002a0: 7ceb b3bd 5d0d 963d e0dc 0abe 03e5 91bc
000002b0: ce30 963c 5ab4 27be 6243 2c3e d7ef 9b3d
000002c0: 2fb2 6dbb 8f3c 8c3d 13c2 8cba 4ef5 e7bd
000002d0: 960c a6bd bf59 22be 493b c33c 8ff9 15be
000002e0: 994d f1bd 617f ca3d 24d6 75be 8384 c4bd
000002f0: 6817 de3d f4c5 02bd 5734 25bd 9f56 7f3d
00000300: 1f7f 413d a6b8 c3bd e0f9 063d 54fb 02bd
00000310: ed0c 26be 0d6e f63d 0cf9 c73b 8f5f 2dbd
00000320: 8a78 d53c 3c88 253d 1bfc a33d c06c 33be
00000330: 81cd e0bd cd59 d73d 8e26 a03d c46e 75be
00000340: 62e8 abbc 9048 2c3e 725e 0c3d 9bfd a8bd
00000350: cc04 babc 68d6 9ebb c0f7 a3bc 0985 85be
00000360: 4294 0c3d 60ff 8abd c1a3 66bd 9d0a a9bc
00000370: bc5c 9cbe 8e30 c83c a472 7fbe e558 033d
00000380: e34d f93c 1038 cabc 6fbf 0f3e 6e58 1ebe
00000390: 0d62 233d 9ed9 253d 5406 143e a144 193e
000003a0: 0df2 42bc 53c5 0c3e 32f1 9dbd 42f0 34bc
000003b0: b4ad aeba 562b 903d b695 d7bd 3c50 923c
000003c0: baed 053b 6499 8dbd 997f 563d efab eabb
000003d0: dd08 d53c 4fec e9bc c2a5 e6bd 357e 97bd
000003e0: eabc 633b beb5 853e 9f71 fd3b 3867 313c
000003f0: 470b b63d 9295 79bc 10aa 32bd 7e00 333e
0.06713736 0.11327227 -0.18025795 0.1378087 -0.17034218 -0.09313031 -0.08932257 0.022585375
-0.02294202 0.050804228 0.051886883 -0.013113572 0.035866417 0.13813192 -0.18847878 0.013499008
-0.28246337 -0.6388271 -0.07298426 -0.057168428 -0.046906408 0.006002948 -0.015075309 0.075878546
0.0038984984 -0.4020483 0.0046063634 -0.035403393 -0.06529194 0.020214606 0.09875046 0.02286234
-0.13965227 -0.015842201 -0.1597672 0.033828747 -0.025216306 0.14028867 0.047169477 0.025289167
-0.015185728 0.0057129213 0.016456874 -0.0023979163 -0.15228295 0.024137791 -0.124993175 -0.08578298
-0.119115785 0.09916305 -0.034125682 0.07737322 0.009350136 0.11914034 -0.5647451 -0.018275887
-0.05481529 0.034271915 -0.07151733 -0.12335437 0.034030683 0.05384471 0.06554086 0.062642485
-0.20549756 -0.084114105 -0.36769077 -0.15906018 -0.1362679 -0.030850723 -0.034583993 -0.060084056
-0.27682123 -0.26762405 0.009453829 -0.14369234 -0.14424525 -0.2249973 -0.0008197549 0.13468485
0.05678228 0.055909123 0.09255242 0.032870233 0.049563635 -0.0038049242 0.06696968 -0.134652
-0.19943476 -0.03095219 0.075991616 0.024392957 0.039197728 0.17543106 -0.029812003 -0.022183206
0.053355105 -0.16999498 0.35858718 0.044639047 0.047534287 0.055559173 0.03541167 0.043522514
0.10122924 0.40495893 0.0069701015 -0.038660116 -0.053231057 0.11749218 0.18400227 0.013199435
0.11631858 0.009792221 -0.08471916 0.06644736 0.039737288 0.13960655 -0.015988708 0.0077123162
0.019553613 0.12330731 -0.09659366 0.048456673 -0.0663156 -0.003648739 0.05269924 -0.0078021395
-0.13693315 -0.083318874 -0.020738082 0.1058377 -0.18427654 -0.19911404 0.029410845 0.09000059
0.14561094 -0.07690098 0.019331193 0.0484985 0.087014414 0.058825094 -0.03588818 -0.043139733
0.06979667 -0.03181869 -0.27187216 -0.029872254 -0.13883561 0.058356013 0.032963376 0.021011872
0.06185083 0.104945235 0.060225792 0.0737629 0.057036545 -0.122987606 -0.013403964 -0.0012858233
-0.065330036 -0.028046452 0.06233391 -0.23516548 0.03378207 0.13420478 -0.07761443 -0.18993926
-0.087851495 0.073267676 -0.1356082 -0.017809397 0.018333819 -0.16377392 0.1682258 0.07614105
-0.0036269536 0.06847488 -0.0010738991 -0.11326085 -0.08107869 -0.15854548 0.02383198 -0.1464598
-0.11782379 0.09887577 -0.2400747 -0.09595587 0.10844308 -0.031927064 -0.04033312 0.062338468
0.047240373 -0.09556703 0.032953143 -0.031977966 -0.16215868 0.12032709 0.0061026867 -0.04232746
0.026058454 0.040413126 0.0800707 -0.17521954 -0.10976697 0.10515175 0.07819854 -0.23968035
-0.020984832 0.16824555 0.034269758 -0.082514964 -0.022707365 -0.0048473366 -0.020015597 -0.2607806
0.034321077 -0.0678699 -0.05630851 -0.020634944 -0.305395 0.024437215 -0.24946076 0.0320672
0.030432647 -0.024684936 0.1403787 -0.15463421 0.03988843 0.04049074 0.14455539 0.14967586
-0.01189853 0.13747148 -0.0771202 -0.01104361 -0.0013326914 0.07039516 -0.10526602 0.017860524
0.0020435886 -0.069140226 0.05236778 -0.0071616094 0.026005203 -0.028555064 -0.112620845 -0.07397119
0.0034750053 0.2611522 0.007734492 0.010827832 0.0888887 -0.015233414 -0.043619215 0.17480657

Q1.moduleList.1.linear_1.bias f4 [128]
00000000: c285 0ebd 246b c0bd a221 0ebd 287e 083e
00000010: 0a17 eb3c 6396 c73d 7d05 923d 4c94 133d
00000020: e3e1 833d 69b1 763d 3555 b33d 3cc4 52bd
00000030: fdc6 8dbd 296d c7bc 1a98 893d 2edb 28bd
00000040: 4e6f 17bc 6f5a 85bd 8464 643c 7bcb 28bc
00000050: 810f 993d e2ec bcbc bb2e 34bd b073 c1bd
00000060: cb19 a0bd 5ac4 93bc ece4 6bbd 96ac 69bd
00000070: e85c adbd 967b 80bc b53c d33d c523 0ebe
00000080: 4fac 1dbd 6238 89bd 41dd 123d 84d9 26bd
00000090: 29c4 90bc cf08 48bd 71d5 3c3c 791d 18be
000000a0: 03bb 743d 5f26 69bc 5bda 543c f638 c9bd
000000b0: 376e 8f3d 801d df3d e151 343d d323 c13d
000000c0: ca0e a9bc 73ba d93d 9bbf 4b3d 739c c03d
000000d0: 54b9 43bd ecc0 ae3a febe dcbd eb83 dfbb
000000e0: 836e 9e3d 504d e7bc 165a e3bc 5fc2 4dbd
000000f0: 6f16 493a 3a9b e3bc 4441 42bd a5f0 a23c
00000100: c2d9 9fbc b34a 863c 4f2e f8bd eb66 993d
00000110: 3319 9b3d 8419 c83d 0fa5 ba3d 6fee d5bc
00000120: 21b5 ab3c 187c c53c da92 b33d b69b e03d
00000130: 4055 d8bc f648 a2bc 70d4 063e b694 bcbb
00000140: d4ef 253e a108 ec3d 8e98 e3bc ce4d eb3c
00000150: 10c4 bcbd 6227 1cbd 6203 10bd e9eb 8abd
00000160: 29ae a6bd 3c7f 1fbd 9d5c 5cbd 7acc 65bd
00000170: 595a 993d 2326 e63d 6d90 813d 2c36 173d
00000180: 998e 0abe 6fb8 3f3c 6b20 ba3d 526e ea3d
00000190: 5f30 08be d10a 953c ce35 0b3e 024c 6a3c
000001a0: 9c0d e8bc 32ee 263d b2d0 13bc a3d8 13bc
000001b0: 53f1 ff3c f8f3 933d 477a 8cbd 6c35 8a3d
000001c0: 9524 4e3b f8c8 a1bd 6a06 5d3d bbcf a13d
000001d0: b211 67bc cf0e 61bc 4563 8bbb 2a95 cabd
000001e0: a65b afbc 11f1 7ebd 6655 423d 3f60 b13d
000001f0: b21a bebd 35d4 4bbd aca9 9dbd 4b02 143e
-0.03479553 -0.093954355 -0.034700043 0.13329375 0.02869751 0.09745481 0.07129953 0.0360301
0.06439569 0.060227785 0.08756486 -0.051456675 -0.0692272 -0.024344044 0.06718464 -0.04122465
-0.009242846 -0.065113895 0.01393998 -0.01030242 0.0747366 -0.023062173 -0.04398988 -0.09445894
-0.078174196 -0.018037964 -0.057591364 -0.057049356 -0.08464986 -0.01568393 0.10314313 -0.13880832
-0.038494404 -0.06700207 0.035855535 -0.040734783 -0.017671661 -0.048836526 0.011525498 -0.14854993
0.05974866 -0.01423034 0.012991513 -0.098253176 0.07003444 0.108942986 0.0440234 0.09430661
-0.020636935 0.106312655 0.049743276 0.0940484 -0.047784165 0.0013332642 -0.10778616 -0.006821146
0.07735922 -0.028235108 -0.027752917 -0.050234195 0.00076708844 -0.027783979 -0.047425523 0.019890139
-0.019513015 0.016393041 -0.12118208 0.07490333 0.07573166 0.09770492 0.09113514 -0.02611467
0.020960392 0.024107024 0.08768244 0.109671995 -0.026407838 -0.019810181 0.13166976 -0.0057550324
0.16204768 0.11525083 -0.027782705 0.028723624 -0.092170835 -0.038123496 -0.035159476 -0.067832775
-0.08138687 -0.0389397 -0.05379926 -0.056103207 0.074879356 0.11237743 0.06326375 0.036916897
-0.13530959 0.011701687 0.090882145 0.11446823 -0.13299702 0.018193634 0.13594744 0.014300348
-0.028326802 0.040754505 -0.009021925 -0.009023818 0.031243002 0.07224268 -0.0685926 0.06748471
0.003145491 -0.0789966 0.053961195 0.079009496 -0.01410334 -0.013736441 -0.004253777 -0.09891732
-0.021406006 -0.062241618 0.047444724 0.086609356 -0.092824355 -0.049762923 -0.07698378 0.14454

Q1.moduleList.2.linear_1.weight f4 [128, 128]
00000000: 4784 37be e273 39bb ca20 c5be 79ff 0dbf
00000010: 3d6d 46bc 165e 843c 6004 e03d ab19 48bd
00000020: 2ec5 bc3d 2858 84bd 9305 cd3c 6585 77bd
00000030: c9a2 023d c82f 673e 94c8 dbbc 01e4 97bc
00000040: a4d4 0c3d 9b85 babc 2770 0bbd 55ff 00bc
00000050: b59e a0bd 4085 2e3d 1c7f 30be 2ab2 b0bd
00000060: 46f4 6fbb 3f85 e7bd f3a0 f4bd 57d3 ee3b
00000070: 2fed 17be c6ec 043d 14af 403a 2b20 8b3e
00000080: e55c 9eba dfdf ecbc 6b66 06be fc06 423c
00000090: e56b 5a3c 8737 b93c 50b8 4cbd 934a 47bd
000000a0: 89c3 7b3d 0d8b cabc f4f5 20be a686 d93d
000000b0: 3479 13bd 9a51 59bd 1d1e 8ebd a15d 23bd
000000c0: 25a6 6a3c 6351 14bc 78c3 c83b fd77 b9bc
000000d0: 726e 52bd 4a6a 903e 8eec aabb b730 3abe
000000e0: 4543 533d 6cd0 fc3c b44e f6bd 0bbf a5bf
000000f0: e9c7 223d 2a48 aabd a82e b03d 9603 d73c
00000100: 6d45 65bc 7840 413d 402c 02be 9793 61bd
00000110: 660f 42bc 4ced 2dbd 685f eebc 09bc bf3d
00000120: 4382 71be 522c 6c3c 5273 8c3b 2610 493d
00000130: 737f 36bc 72fd 5fbe 7eda ed3c 19b6 cb3d
00000140: 1152 aabb e10e 7abc d20a 9ebb 4173 bfbd
00000150: 1641 ee3c 5c1d 8e3b a4fa b43c 4f90 423e
00000160: b163 88bd 46c4 c5bd f436 473d 3e29 6e3c
00000170: 06f8 ecbc 513f 5abd 559d c2bc 750e 88bd
00000180: 065f 343e 6ba3 37be 20b3 7ebf fae8 6ebc
00000190: cae1 3a3e d0da 923c fe90 4dbd e10c 393d
000001a0: f21c e33b 60c6 bebd d81d 063d 49dc 2ebe
000001b0: af7b 6dbe 1e0a 03be ef0a 24bf 2a84 b13d
000001c0: a5af 49be 4b71 80be 4757 e53c 1154 e7bd
000001d0: ceac 9dbd 17f3 60be a029 8e3d 75fb f4bb
000001e0: 2a1b 1d3e b83b d8bd d8a5 013d 91b6 523d
000001f0: 8198 503d 25d1 a03d 3254 4cbd 9023 e6bd
00000200: a418 66bd 175b a63d bda3 793d ec24 af3d
00000210: f75f 45bd 9972 fb3c bf74 fabb d52d e73c
00000220: a9d4 ee3d f8a5 d1be dc46 0cbf cb68 e43d
00000230: 717e a4bd 9d3a c9bc f72b c9bd 5c16 dcbc
00000240: a408 aebd ee46 d8bd 634f cb3c 9699 c63d
00000250: 558a 0dbf 67fe ae3b 67f5 be3c 60c8 38bd
00000260: 94a2 23bc 92ee 17bc b600 27bd 5b49 84bc
00000270: a24b 493e 5fe9 89bd d032 0cbe 9947 81be
00000280: 2707 883c 4b69 a1bd 50c0 2fbc a007 b5ba
00000290: 9b91 8cbd 2314 2dbc a129 abbc 406f 833e
000002a0: 9cfd df3d 49ad 29bc facc 09bd 653d 16be
000002b0: 2fb6 6ebd 9610 3cbf 9943 a03b 86b4 debe
000002c0: af1e 25bd e9f3 37be a5c1 7a3d 284b 42be
000002d0: f35c 783c 25d3 11be 9825 fcbb a39e 84bd
000002e0: 0038 303d 552c c83a 7e88 9abd 5c3a 0bbe
000002f0: ec42 fdbb b329 80bd a2de e8bc f5d5 21bd
00000300: fbff 4a3c dd1f febd 2c14 ce3c c3e1 01be
00000310: ef1c a43d c7b7 fbbd 7591 26be 78b3 6fbc
00000320: 7124 6ebc 9812 7e3c 93bd 39bf 418d 20be
00000330: f11a 75bc dfc8 8dbc e0f2 823b 86ba 8abd
00000340: c1c6 c8be 667e d2be e473 4b3a d835 71bc
00000350: b799 6dbe 62f7 45bd e7b4 623c b1b6 b9bc
00000360: 4e17 b63c 3ffb 2cbe 3ca4 99bb bb9e 91bd
00000370: 504f 0bbe b15c 483d 9cf0 29bd 401a 803d
00000380: 521c 09be cab1 97bd 59a9 083e 8918 03bd
00000390: 3ce7 14be c0af 63be 8316 a93d 7c6c 72bd
000003a0: 7c93 83bc 0184 0abd e024 fabd 4350 b7bc
000003b0: f00a e43d 15eb fe3d 7db9 913e 9f6b e13d
000003c0: 807d b0bd 2e0a 2abc 0dc2 56bd 9688 91bd
000003d0: 9ca0 6cbc 9a9f 3fbe bc14 a03d 5c90 8f3d
000003e0: 9545 3c3d eadb 5b3c df04 cb3c eef6 74bd
000003f0: ac4b 623e a0bc bdbd 83b3 793d 961b b63d
-0.17921554 -0.0028297831 -0.3850158 -0.55467945 -0.012111005 0.016158145 0.109383345 -0.048852604
0.092172965 -0.06462127 0.025027072 -0.06042995 0.031893525 0.22576821 -0.026829042 -0.018541338
0.034382477 -0.022768786 -0.034042504 -0.007873376 -0.07842771 0.042607546 -0.17235988 -0.08627732
-0.0036614104 -0.113047116 -0.11944761 0.0072883773 -0.14836572 0.032452367 0.00073503074 0.2717298
-0.0012082128 -0.028915344 -0.13125007 0.0118424855 0.013331388 0.022609485 -0.04998046 -0.048655104
0.061465774 -0.024724508 -0.15718824 0.10621385 -0.03600426 -0.053056337 -0.069393374 -0.039884213
0.0143218385 -0.009052607 0.0061268173 -0.022640223 -0.05137486 0.28206092 -0.005216188 -0.18182646
0.051577825 0.030861102 -0.1202673 -1.2948927 0.03974143 -0.083145455 0.08602649 0.026246827
-0.013993603 0.047180623 -0.12712193 -0.055072393 -0.011844492 -0.042462632 -0.029098228 0.09362037
-0.23584847 0.014414864 0.004286208 0.049087666 -0.011138785 -0.21874025 0.02903485 0.09946842
-0.0051977714 -0.0152623365 -0.004823067 -0.09348155 0.02908377 0.004336996 0.022092171 0.19000362
-0.066596396 -0.09656577 0.04863639 0.0145362 -0.02892686 -0.05328304 -0.023756662 -0.066433825
0.17614374 -0.17933433 -0.99492073 -0.014581913 0.18250194 0.017926604 -0.050187103 0.045178298
0.006930941 -0.09315181 0.032743305 -0.1707622 -0.23191713 -0.12796828 -0.64079183 0.086677864
-0.1969591 -0.25086436 0.027995719 -0.11295331 -0.076989755 -0.21967731 0.06941533 -0.007476265
0.15342394 -0.105582654 0.0316523 0.05144364 0.05092669 0.07852391 -0.049884982 -0.11237252
-0.056175843 0.08122843 0.06094717 0.08551964 -0.048187222 0.030694293 -0.0076433118 0.028220097
0.116616555 -0.40946937 -0.5479562 0.111528 -0.08031929 -0.024564082 -0.09822839 -0.02686613
-0.08497742 -0.10560404 0.024818128 0.09697263 -0.552892 0.0053403857 0.023310376 -0.045112967
-0.009987492 -0.009273188 -0.040772162 -0.01614826 0.19657758 -0.06733965 -0.13691258 -0.25249937
0.016604973 -0.07881411 -0.010727003 -0.0013811477 -0.068637095 -0.010563883 -0.020893874 0.25670815
0.10937044 -0.010356256 -0.033642747 -0.14671858 -0.058279213 -0.7346281 0.004890871 -0.43497103
-0.040312465 -0.17964138 0.06121983 -0.18973982 0.01515888 -0.14240701 -0.007694911 -0.0647557
0.043022156 0.0015272001 -0.07545565 -0.13596481 -0.007728925 -0.062579535 -0.028426472 -0.039510686
0.012390132 -0.12408421 0.025156103 -0.12683778 0.08013331 -0.12290912 -0.16266425 -0.014630191
-0.0145350555 0.015507363 -0.7255489 -0.15678884 -0.014960037 -0.017307697 0.003996238 -0.06773858
-0.39214137 -0.4111206 0.00077611045 -0.01472231 -0.23203169 -0.048331626 0.013837076 -0.022670122
0.02222791 -0.16892718 -0.0046887677 -0.071103536 -0.13604474 0.048916522 -0.04148923 0.06255007
-0.1338971 -0.074069574 0.13345851 -0.03200582 -0.14541334 -0.22235012 0.08256247 -0.05918549
-0.016061537 -0.033817295 -0.122140646 -0.022377139 0.11134899 0.12447182 0.2846183 0.11006855
-0.08617687 -0.010378404 -0.052431155 -0.0710613 -0.014442589 -0.18713227 0.07816455 0.07009956
0.045964796 0.013419131 0.024782596 -0.059805803 0.22099179 -0.09264493 0.06096221 0.0889198

Q1.moduleList.2.linear_1.bias f4 [128]
00000000: 72a8 3dbc b966 413d e8da 723d 7f2f 58bc
00000010: b0d2 07be 5bc3 133c 53d8 663d e6d0 c3ba
00000020: 753b 53bd 38d5 4c3d ecbc 3c3d 7ddc e8bc
00000030: 579a 0e3d 4f34 47bc b4de 273d 5895 c3bc
00000040: d971 9f3d 341a 91bd 8f25 a2bd 3c1d 913d
00000050: b351 3a3d e92b 93bd 38b3 50bd 72c1 be3d
00000060: 6dd9 bc3c d643 86bc 6475 21bd f5f0 0cbd
00000070: d275 9b3d cd6c 3e3d 083a 9f3c ab55 e2bc
00000080: 8a90 953d 4a6e bb3d c313 50bc e6e1 09bd
00000090: b65a b1bb 3346 34bd d26e fbbd c8ca 873c
000000a0: d2c2 69bc 4993 e8ba 9894 33bc 93c0 933c
000000b0: 6ab7 303c 5157 6a3c 11a1 19bd 5d8e 03bd
000000c0: 4f4f b1bc 93e2 fdba bc39 6fbd 3979 e03c
000000d0: 2b0d e23c 39cc 873d 141c ccbc da64 febc
000000e0: e34e 8bba 323b d5bc e15b 743d 0e53 683d
000000f0: 54ae 933d 1837 c7bc 99a9 5dbd df4d bd3d
00000100: 24f8 8d3d 4289 04bc c354 c83d e7a6 8d3b
00000110: 88a0 543d 29e6 533d b868 b9bb 1f12 39bd
00000120: 9604 5f3d a161 4dbc 8354 c73d 3436 503d
00000130: 5446 0ebd 0eca 0cbd 397b 8b3d d5eb 363c
00000140: d18f 7e3d 58e2 a23c adec 7cbc 425c 863d
00000150: cbb5 103a 1c0f 113d 047c bbbd 6763 233d
00000160: 74c8 d5bc 8577 563d 6768 19bc ec89 16bd
00000170: f5f1 efbc 6ec6 793b 4fb3 2a3d aca8 97bb
00000180: b3b3 98bd 0149 3abc 7275 923d f885 5a3d
00000190: b311 c03c 7c11 0b3d 5cdc f93c 181c 5dbd
000001a0: 74b2 a5bb 2d74 80bd 1f35 913d da0f 853d
000001b0: a829 e83d 7405 39bd c1a4 5a3c 36fd 083d
000001c0: c8fe 08be 8a18 993c ade1 cebd 2086 e13c
000001d0: 9eed 103d 1d20 9e3d 2dfe 603d 64a1 8e3d
000001e0: ef4c c1bd 62c4 d13d 8a20 87bd 589b 1ebc
000001f0: 3eef 903d 7699 0f3d ca6f 0d3d 9fd5 cabd
-0.011575805 0.047217105 0.059290797 -0.013194918 -0.13263965 0.009018744 0.056358647 -0.0014939576
-0.051570375 0.05000803 0.046078607 -0.02842545 0.03481516 -0.012158467 0.04098387 -0.023874924
0.077853866 -0.07085076 -0.0791732 0.07085654 0.04548807 -0.071861096 -0.050952166 0.093142405
0.023052895 -0.016389769 -0.039418593 -0.034409482 0.07590832 0.04649048 0.019436851 -0.02762874
0.07302959 0.09151895 -0.012700024 -0.0336627 -0.005412425 -0.04401226 -0.12276997 0.016576186
-0.01426764 -0.001774409 -0.0109607205 0.018036162 0.010785917 0.014303044 -0.03750712 -0.03211819
-0.021644263 -0.0019369893 -0.05840467 0.027401553 0.02759417 0.06630749 -0.024915732 -0.03105395
-0.0010628368 -0.026029203 0.059657935 0.056719832 0.07210985 -0.024318263 -0.05411682 0.09243368
0.06932095 -0.008089365 0.09781792 0.004322875 0.051910907 0.05173317 -0.0056582354 -0.045183297
0.054447733 -0.012535484 0.09732916 0.050832942 -0.03473504 -0.034372382 0.06810612 0.011164625
0.062148873 0.01988332 -0.015437287 0.065605655 0.00055202533 0.0354148 -0.091545135 0.03988972
-0.02609656 0.052360076 -0.00936327 -0.036752626 -0.029290179 0.0038112658 0.04167491 -0.0046282616
-0.0745615 -0.011369945 0.07151307 0.05335042 0.02344594 0.03395222 0.030500583 -0.05398187
-0.0050566737 -0.06272159 0.0709021 0.06497164 0.1133607 -0.045171216 0.013344944 0.033444606
-0.13378441 0.018688459 -0.10101638 0.027529776 0.03538286 0.07720969 0.0549299 0.069643766
-0.09438502 0.10242535 -0.06598003 -0.0096805915 0.07076882 0.03505846 0.03453044 -0.09904026

Q1.moduleList.3.linear_1.weight f4 [1, 128]
00000000: 2055 d53e dbb6 dcbe c257 09bd 59d6 49be
00000010: 9ccb 9ebe 07e4 2c3e de69 993d 59d7 09be
00000020: f23b 863d a78f 853d cf08 0c3e eb23 363e
00000030: b8fc f9bd 3d79 b13d b4d9 493d 10af 11be
00000040: 8333 6cbd 21ab 003e cc7f 93be ae84 9d3d
00000050: f830 073d 2f1f b9be 1898 503e 7c2b 95bd
00000060: 4837 debe dbe2 853d ecb5 173d 4b09 ad3e
00000070: cb13 99bd 3aa4 34bc 968f 633c 02ae 003e
00000080: c97a c63d 1279 f3bd da9d d4be 329f d73d
00000090: 06f1 123d 25af 3f3e a7b3 15bf 5c69 f0be
000000a0: 62f3 523e 8dda 00bf 849a 4b3d 1beb 00be
000000b0: c5ff eb3d 9e81 8ebe 938c bf3d 51c7 4d3e
000000c0: 71bc 233e 91de 4fbe 91c7 813d b24c 773e
000000d0: 98c1 09be 285d d5bd c661 ccbc 24c7 19bd
000000e0: e085 86bd 078a 44bc 2c62 a03d 37f7 2b3d
000000f0: 2b14 95bd 435f c93e c011 d43d afea eebd
00000100: 7a1e 9dbd 222d 683e 4011 18be 8444 a23d
00000110: 032c 9d3d 3036 773d 2e82 173e 5409 4b3e
00000120: 3072 5d3d 78f5 673e 59e6 19be 9a38 023d
00000130: 7575 0a3e e586 39bf 38e3 bbbd 470f a9bd
00000140: d5b6 753d 12ad b83e a72f 893d 3bd5 ae3d
00000150: 4122 c3bd 94ea 92bd f453 08bf a22e 14be
00000160: 1342 7dbb 7693 b1bd d4ee 643e e308 733d
00000170: 65fb b0bc bc2f 133e ea27 08be d0e8 633e
00000180: 6a06 243d 8aa2 42be 9c1d 8f3d 8d33 543d
00000190: ead9 2b3e 76dd 2bbe 4bb3 7f3e 3485 64be
000001a0: 48cb d23e 2f79 5dbe 1a04 bc3d dbe0 85bd
000001b0: 6c38 41be c300 df3e 7340 0abf 7748 d8bd
000001c0: 8e9c 94bf 2170 fbbd 4b58 8d3e 8158 c63d
000001d0: 334d f9bd 7b34 ebbd 8f28 813d 661d bebd
000001e0: e9b4 5fbe f4e0 1cbe 58c0 bd3d af44 f6bd
000001f0: 5bc7 3abe 7501 c93d aaa3 66be 8782 13bf
0.41666508 -0.43108258 -0.033530958 -0.19710673 -0.31014717 0.1688386 0.07490896 -0.13461055
0.065544024 0.0652154 0.13675235 0.17787139 -0.122064054 0.086657025 0.049279884 -0.14226937
-0.057666313 0.1256528 -0.2880844 0.07691322 0.033005685 -0.36156604 0.20370519 -0.072836846
-0.4340155 0.0653741 0.03703873 0.33796152 -0.07474478 -0.011025483 0.013889214 0.12566379
0.09691388 -0.11888327 -0.4152668 0.10528411 0.03587439 0.18719156 -0.5847725 -0.46955383
0.20600656 -0.5033348 0.049707904 -0.12589686 0.115233935 -0.27833265 0.09352984 0.20095564
0.15989853 -0.20299746 0.063368924 0.2415035 -0.13452756 -0.10418159 -0.024948966 -0.03754343
-0.065685034 -0.011995799 0.07831225 0.04198381 -0.07279237 0.3933049 0.10354948 -0.11665856
-0.076718286 0.22673467 -0.1485033 0.079232246 0.0767441 0.06035441 0.14795753 0.19827777
0.054063976 0.22652233 -0.15029277 0.03179226 0.13521369 -0.7247146 -0.09174198 -0.08254867
0.059988815 0.36069542 0.06698542 0.08536764 -0.09528018 -0.071736485 -0.532531 -0.14470914
-0.003864412 -0.08670704 0.2235673 0.059334647 -0.02160425 0.14373678 -0.13296476 0.2225678
0.04004518 -0.19007316 0.069880694 0.051806975 0.16782346 -0.167837 0.24970739 -0.22316438
0.41170716 -0.21628259 0.0918047 -0.065370284 -0.1886918 0.4355527 -0.5400459 -0.105606966
-1.1610277 -0.12277246 0.27606425 0.096848495 -0.12172928 -0.11484619 0.06306564 -0.09282951
-0.21846355 -0.15320188 0.09265202 -0.12024819 -0.1824011 0.09814731 -0.2252337 -0.57621044

Q2.moduleList.0.linear_1.weight f4 [128, 12]
00000000: bf9d eb3c 6854 e2bd d73f 8dbd 97c7 0fbf
00000010: 31ed 1bbd 608c 5dbc 8e7c 28bc 0ef9 8e3c
00000020: 3be5 36bd 6796 0abc 6213 febc ff56 9abc
00000030: 1967 90be cf87 64bd 4c74 e43b 1622 48be
00000040: f7a3 a3bc df81 863a da6e 67bb 147f 123b
00000050: b72c 06bc f3b7 e1ba 149d f3bb d5ca a7bb
00000060: 3d68 54be 090a 0dbd bde9 b33b 0e77 5cbe
00000070: 2d2f d1bc cbe7 e6ba fe67 1ebb 907f 81bc
00000080: 1187 2dbc 9286 9cbb cbcc 0dbc 3ccb 1cbc
00000090: 31bd 09bd d3ca a03c 1e2b 8e3d 0684 133f
000000a0: 382b ab3d e139 643b 1a94 933c 067a 39bc
000000b0: 88c7 9c3d 3bec ab3c f306 2d3d fd1d 653d
000000c0: 75ce 8dbd 11da f1bd 081a 69bb c629 0fbf
000000d0: 6898 84bd 29bd 223b ed9b 53bc 8d60 233a
000000e0: 116b 62bc 1660 a4bb 578b cfbb ee1f 93bc
000000f0: 58c0 c9bd 3060 49be 8637 35bd add0 fabe
00000100: e7b5 a13c 68b3 733b 54f0 72bb c3bc 483c
00000110: 3fb2 543d 01f6 99bb 0265 543d a0b4 f73c
00000120: 2fcd 01bf ccc5 3a3c fdc5 66bb bc79 16be
00000130: 233e 13bc ed43 283a 6809 abbb e205 0e3c
00000140: 7080 043c 4c42 023c e5db 2b3a 4e86 df3b
00000150: f3f1 633e 4971 473e f08d 263d ca79 c43d
00000160: 7546 1cba 6ac5 933a ea6d d3bb 178d 14bc
00000170: 9a94 503c ca56 a83b e34a c23b 5a83 b83b
00000180: d988 b43d 82f3 a3be 4220 6fbd c7da dc3d
00000190: 9cb7 c83c 31d4 55bb 7553 b13a 51f8 c13c
000001a0: 78a5 bbbd 9942 0a3c 31fa 0fbd 1ec7 eebc
000001b0: 9095 d8bd d89d 363e e570 5c3a 4f7e 083f
000001c0: 3152 b93d da89 8ab8 e06f 1e3c 20ad 7abb
000001d0: 0760 6a3b 5840 12bc 4476 493c 8ea2 103c
000001e0: f60f a03e bf59 723e b5d8 233c 5680 b23e
000001f0: b421 503c dd5d 1dba 7dbc 323b 61be 21bb
00000200: 6d10 273d a651 653b a813 203c ce09 cc3b
00000210: c512 133e 7814 61be cf6a a63a cab4 9ebe
00000220: 4cac c13c 867b 1739 231a 5b3b 5022 273c
00000230: c8f1 9cbd 6800 833a d12f 8abb 7259 1a3c
00000240: fd93 4ebe 531f 403e a4f4 6bbd bb31 ef3d
00000250: 5961 f33c ca7f 32bb a2e8 a5ba b426 353c
00000260: 0f83 a73d 7f05 0e3d bf17 263d a985 f13c
00000270: 6edb 3cbf f485 e33d 77c5 f23c 0d2c 9b3e
00000280: 23ab 773c 99e8 263b 41bd 003b a3f9 6cbc
00000290: 12da 803c b680 b4ba bb40 853b 768a 233b
000002a0: da82 12bd 0e8f e23d 56dd 493c 159f f9be
000002b0: 9e70 46bc be85 9b3b 17fa 023b a0f8 a03a
000002c0: bee5 073a 34c2 e4bb 92ae 98bc d584 89bc
000002d0: 83bc 4d3e 5e05 593d 0df4 d1bc c904 153e
000002e0: b200 fe3c ab8d 16bc 5646 0a3c 45c8 49bc
000002f0: d3e3 0f3c a10e 20bc 496f bbbb 7b0e 273c
00000300: 280e 163d 1a8e d43d 1f6d 483d 696a e23e
00000310: 0d8a 3bbc cbc7 213c 4c21 a9bc 0540 8f3c
00000320: a467 083c e599 8d3c 5000 f93c 86a5 313c
00000330: ddaa 8bbc ba16 e2bd 03a6 103c b712 67be
00000340: db93 13be b878 e839 49f0 39bd 50df 08bb
00000350: 9456 43bc 4114 f439 11da 96ba 01a5 b0bc
00000360: 60b1 21be 05d8 dbbd 3526 c3bb 1b16 27bf
00000370: 0e0f 2fbd ed0d 82bb 5e49 0bbc f674 a7bc
00000380: ad21 f8bc 7ad4 00bc eb53 efbc 1812 0e3c
00000390: 6e0d cdbd accc 823d c609 6b3d 1eb6 23be
000003a0: 0f6e 13bd 8ac4 f5ba b685 d03b c80f 93bc
000003b0: 1e04 40bd 145f b9bb 0536 1abd 5b0a 2ebc
000003c0: bb82 fe3d f1bd 70be 6fa4 8abc 385c 9fbe
000003d0: c522 eabc 90b0 99ba a977 eebb 1f12 57bb
000003e0: 9f9a 9ebd 6b99 7f3b 8263 84bc 51ab c5bb
000003f0: bfaf 14be 5c77 68be 1ec8 a3bb 9df2 963e
0.028761743 -0.110512555 -0.06896942 -0.56163925 -0.038068 -0.013522238 -0.010283602 0.017452743
-0.044652205 -0.00845871 -0.031015102 -0.018840311 -0.28203657 -0.05579358 0.0069718715 -0.19544253
-0.019975645 0.0010262093 -0.0035313875 0.0022353576 -0.008189372 -0.0017220959 -0.0074344967 -0.005120615
-0.20742889 -0.0344334 0.0054905103 -0.21529791 -0.02553519 -0.0017616687 -0.002417087 -0.015807897
-0.010591284 -0.004776784 -0.0086547835 -0.009569939 -0.033627693 0.019627964 0.06941818 0.57623327
0.08357853 0.0034824538 0.018014956 -0.011320597 0.07655245 0.020986667 0.042242955 0.055936802
-0.06924144 -0.11809171 -0.0035568494 -0.55923116 -0.06474382 0.0024831987 -0.012915594 0.0006232344
-0.013819472 -0.005016337 -0.0063337493 -0.017959561 -0.0985114 -0.19665599 -0.044242404 -0.48987332
0.019740058 0.0037185792 -0.0037069516 0.012252036 0.0519278 -0.0046985154 0.05185414 0.030237496
-0.5070371 0.0113996975 -0.0035213225 -0.14694875 -0.0089869825 0.0006418813 -0.005219627 0.008668395
0.0080872625 0.007950377 0.0006555899 0.0068214303 0.22260265 0.19476809 0.040662706 0.09593542
-0.00059614267 0.0011274044 -0.0064523118 -0.009066842 0.012730742 0.005137299 0.0059293373 0.0056308927
0.08815164 -0.3202172 -0.058380373 0.10783916 0.024501614 -0.0032627697 0.00135289 0.023677977
-0.0916242 0.00843873 -0.03515071 -0.02914768 -0.10575402 0.1783365 0.00084091566 0.5331773
0.0904888 -6.60603e-05 0.009670228 -0.0038250163 0.0035762803 -0.008926474 0.012296263 0.008827819
0.31262177 0.23667048 0.010000397 0.34863538 0.012703348 -0.00060030614 0.0027272992 -0.0024680125
0.04078715 0.0034991293 0.009770311 0.0062267547 0.14362629 -0.21980464 0.0012696626 -0.30997306
0.023641728 0.00014446498 0.0033432327 0.010201052 -0.076633036 0.0009994628 -0.004217126 0.0094207395
-0.2017364 0.18761949 -0.057606354 0.11679407 0.029709505 -0.0027236813 -0.0012657831 0.011056591
0.08179294 0.03467321 0.04054999 0.02948268 -0.73772323 0.11109534 0.029635174 0.30307046
0.015116486 0.002546823 0.0019644054 -0.014463815 0.015728984 -0.0013771269 0.0040665544 0.0024954355
-0.03576932 0.11062442 0.012320837 -0.48754182 -0.012111811 0.004746168 0.001998549 0.0012281127
0.00051840756 -0.0069811586 -0.01863793 -0.016786972 0.20091443 0.052983634 -0.025629068 0.14552607
0.03100619 -0.00918905 0.008439621 -0.012315814 0.008782345 -0.009769113 -0.0057200533 0.0101963235
0.036634594 0.10378666 0.04893219 0.4422181 -0.011446488 0.0098742945 -0.02064576 0.017486582
0.008325491 0.017285297 0.030395657 0.0108426865 -0.017049247 -0.11039491 0.008828643 -0.22565733
-0.14411871 0.0004434043 -0.04539517 -0.0020885058 -0.011922497 0.00046554397 -0.0011509081 -0.021563055
-0.1579032 -0.10734562 -0.0059554824 -0.65268105 -0.042738967 -0.0039689452 -0.008501379 -0.020441514
-0.030289495 -0.007863158 -0.02921482 0.008671306 -0.10012327 0.06386694 0.057382368 -0.15987441
-0.035993632 -0.001875059 0.006363596 -0.017951861 -0.046878926 -0.005657086 -0.037649173 -0.010622586
0.124272786 -0.23509957 -0.016924111 -0.31125045 -0.028581033 -0.0011725593 -0.007277448 -0.0032817197
-0.077443354 0.0039001356 -0.01616073 -0.0060323854 -0.14520167 -0.22701782 -0.004998221 0.29481974

Q2.moduleList.0.linear_1.bias f4 [128]
00000000: 3fd2 95bd f44b 0a3e 5a78 6c3e bd5a a9bd
00000010: 7547 1e3e 8a62 c0bc 78d9 2abe aa0f cebd
00000020: fa5a d4bd c5cb 293e 4961 6bbd d91c 81bd
00000030: 5dd4 f5bd 76a5 e03c 44fe 853d 50e0 9c3b
00000040: 8bdd 0fbe bf39 123e ae60 20bc 8ef2 e7bb
00000050: 2b16 6bbd 8060 8b3c 9fb2 45bc 5b49 17be
00000060: a5a3 11bc 0f62 ebb9 7d21 78bd 7bc1 68bd
00000070: 0cf6 aabc 6180 a53c d0c7 1c3e be47 123e
00000080: f0af 503d 2ee0 043d 0721 52bd 4565 cd3d
00000090: 51e6 873d 30a9 01bd eb07 a7bd 166f a0bd
000000a0: 470c d7bc c0f3 133d 0bea 75be a7c3 9f3d
000000b0: 56ed 1dbd aaf4 043d 0406 0bbe 0f6e 21be
000000c0: 4ddb bcbd 3666 333d cd58 0ebd df5d 6fbb
000000d0: e81f ccbd 16ca d6bd c891 ecbd 3f25 5b3c
000000e0: 604f 473e 0d9e 3a3d 3b6d 87bc b375 593d
000000f0: 80f4 f2bb ec3f bd3d 3d01 99bc 37f6 50bd
00000100: 11e2 0bbe 9407 333e 74ad eebd 07a9 983c
00000110: c008 8ebe b4fc 12be 67d0 e23d 3744 79bc
00000120: b063 dbbd 41dd 83bc e4f1 3abd f71a 30bd
00000130: 6021 d1bd 129a 14bd 22e4 9f38 1da8 13bd
00000140: cecc 1f3d 5a68 43bd 9a56 9e3c 46d7 3b3e
00000150: 8eea 41bd 405f ed3c 8beb 12bb 2802 34be
00000160: 1cb8 d1bd a77d 10be 8da9 e33c 0deb 2fbe
00000170: 77d7 f63d 8901 9bbb 8589 003e 00b7 23be
00000180: c64c 81be 4af3 0abd 54b9 e6bd cf9a 0bbe
00000190: 5457 7bbe 3ae1 0cbe d32e f1bd 83cd 893a
000001a0: 4b2c 8e3d c665 bbbd ff2c 0dbe cae4 fdbd
000001b0: e9f6 393c 406d 9fbd 97db 2abe 3b24 a6bd
000001c0: 1384 743d 4944 efbd 481a 9d3a 4b06 ebbc
000001d0: bb30 013e 51bd 2dbe 8b8f d6bd cb8a 54be
000001e0: b134 18be 436c 4dbe 4dc8 1abe 1054 6cbd
000001f0: 0c9d adbd d570 553d 19ce 81bd 65d5 42bd
-0.07315492 0.13505536 0.23092785 -0.0826926 0.15456946 -0.023484487 -0.1668452 -0.100615814
-0.10368915 0.16581638 -0.057465825 -0.063043304 -0.12003396 0.027422648 0.06542638 0.0047874823
-0.14049356 0.14279841 -0.009788675 -0.0070784753 -0.057394188 0.017013788 -0.012066512 -0.14774077
-0.008889114 -0.00044895752 -0.060578812 -0.056825142 -0.020869277 0.020202817 0.15310597 0.1428518
0.050949037 0.032440357 -0.05130103 0.10029081 0.06635726 -0.03165549 -0.08155807 -0.07833688
-0.026250971 0.03612113 -0.24015062 0.078009896 -0.03855642 0.032459892 -0.13576514 -0.1576464
-0.09221516 0.043798648 -0.034752656 -0.0036524457 -0.09967023 -0.104877636 -0.11551243 0.013375579
0.19463873 0.045560885 -0.016531577 0.053090762 -0.0074144006 0.09240708 -0.018677348 -0.05101606
-0.13660456 0.1748336 -0.11654177 0.018635286 -0.2774105 -0.14354211 0.11074906 -0.015214018
-0.10712373 -0.016096713 -0.04564084 -0.042994466 -0.10211444 -0.036279745 7.624204e-05 -0.036048997
0.039013676 -0.04770694 0.019328404 0.18343839 -0.04734283 0.028976083 -0.0022418227 -0.17578948
-0.10240194 -0.14110433 0.027790809 -0.17179509 0.120528154 -0.0047304076 0.1255246 -0.15987778
-0.25253886 -0.033923425 -0.11265817 -0.13633274 -0.24545032 -0.13757792 -0.11776509 0.0010513518
0.06942042 -0.09150271 -0.13786696 -0.12397154 0.011350372 -0.0778451 -0.1668533 -0.08112379
0.05969627 -0.11682946 0.0011985982 -0.028689524 0.12616245 -0.1696675 -0.104765974 -0.2075607
-0.1486385 -0.2006083 -0.15115471 -0.057697356 -0.0847722 0.052109558 -0.06338138 -0.04756679

Q2.moduleList.1.linear_1.weight f4 [128, 128]
00000000: 507f 893d 4bfb e73d 8a95 38be b91d 0d3e
00000010: 2e6e 2ebe 1bbb bebd c0ee b6bd f704 b93c
00000020: e7f0 bbbc 1818 503d 5787 543d 4fda 56bc
00000030: aae8 123d 7472 0d3e 9500 41be f12a 5d3c
00000040: 0a9f 90be 2c8a 23bf c678 95bd 7129 6abd
00000050: ef20 40bd 61b4 c43b 6efe 76bc 3666 9b3d
00000060: f37d 7f3b 46d9 cdbe faf0 963b 2603 11bd
00000070: c8b7 85bd 1a99 a53c ae3d ca3d cd49 bb3c
00000080: 0101 0fbe 81c7 81bc 039a 23be 0390 0a3d
00000090: 6d92 cebc d5a7 0f3e c834 413d 3a2b cf3c
000000a0: 8fcd 78bc 7533 bb3b 91d0 863c 5c26 1dbb
000000b0: 10f0 1bbe 9ebc c53c 6cfc ffbd fdae afbd
000000c0: faf2 f3bd ff15 cb3d 5fc7 0bbd da75 9e3d
000000d0: 5031 193c daff f33d 2393 10bf 50b7 95bc
000000e0: ff85 60bd b560 0c3d ae77 92bd 37a1 fcbd
000000f0: c263 0b3d 458c 5c3d 493a 863d b44a 803d
00000100: f46d 52be 0444 acbd f741 bcbe ace0 22be
00000110: d089 0bbe a8ba fcbc f2a7 0dbd b31a 76bd
00000120: 83bb 8dbe 0506 89be 3ce4 1a3c 1624 13be
00000130: 07b5 13be b165 66be d2e4 56ba d3ea 093e
00000140: 8994 683d f700 653d 208c bd3d f0a2 063d
00000150: 3d03 4b3d 095c 79bb 6627 893d 37e2 09be
00000160: a038 4cbe 728f fdbc 7ea1 9b3d bdd3 c73c
00000170: cc8d 203d 33a4 333e 4d38 f4bc 8eb9 b5bc
00000180: e28a 5a3d 2a13 2ebe bd98 b73e 6fd7 363d
00000190: 50b3 423d 0492 633d d40b 113d aa44 323d
000001a0: 4751 cf3d c756 cf3e 7365 e43b 125a 1ebd
000001b0: cf08 5abd bd9f f03d 176b 3c3e 7142 583c
000001c0: 7038 ee3d 8d6f 203c 3d81 adbd 8e15 883d
000001d0: 91c3 223d 05f5 0e3e c0fa 82bc 99b7 fc3b
000001e0: e62e a03c 8b88 fc3d e6d2 c5bd 817a 463d
000001f0: 79d0 87bd af1f 6fbb 29db 573d 17a9 ffbb
00000200: 3438 0cbe 16a3 aabd e9e2 a9bc 70c1 d83d
00000210: fdb2 3cbe 8de4 4bbe 03ef f03c 3b52 b83d
00000220: 091b 153e 437e 9dbd 735c 9e3c 5da6 463d
00000230: 9d34 b23d 95f2 703d 7cff 12bd 4ab3 30bd
00000240: 8ef1 8e3d 5154 02bd d432 8bbe a8b6 f4bc
00000250: ec2a 0ebe b706 6f3d 9b04 073d 1721 ac3c
00000260: 4c57 7d3d 87ed d63d 52af 763d 0111 973d
00000270: 279f 693d ede0 fbbd 4d9c 5bbc 1289 a8ba
00000280: c1cb 85bd acc1 e5bc d851 7f3d 38cf 70be
00000290: 115f 0a3d fa6c 093e 50f4 9ebd 707f 42be
000002a0: 7ceb b3bd 5d0d 963d e0dc 0abe 03e5 91bc
000002b0: ce30 963c 5ab4 27be 6243 2c3e d7ef 9b3d
000002c0: 2fb2 6dbb 8f3c 8c3d 13c2 8cba 4ef5 e7bd
000002d0: 960c a6bd bf59 22be 493b c33c 8ff9 15be
000002e0: 994d f1bd 617f ca3d 24d6 75be 8384 c4bd
000002f0: 6817 de3d f4c5 02bd 5734 25bd 9f56 7f3d
00000300: 1f7f 413d a6b8 c3bd e0f9 063d 54fb 02bd
00000310: ed0c 26be 0d6e f63d 0cf9 c73b 8f5f 2dbd
00000320: 8a78 d53c 3c88 253d 1bfc a33d c06c 33be
00000330: 81cd e0bd cd59 d73d 8e26 a03d c46e 75be
00000340: 62e8 abbc 9048 2c3e 725e 0c3d 9bfd a8bd
00000350: cc04 babc 68d6 9ebb c0f7 a3bc 0985 85be
00000360: 4294 0c3d 60ff 8abd c1a3 66bd 9d0a a9bc
00000370: bc5c 9cbe 8e30 c83c a472 7fbe e558 033d
00000380: e34d f93c 1038 cabc 6fbf 0f3e 6e58 1ebe
00000390: 0d62 233d 9ed9 253d 5406 143e a144 193e
000003a0: 0df2 42bc 53c5 0c3e 32f1 9dbd 42f0 34bc
000003b0: b4ad aeba 562b 903d b695 d7bd 3c50 923c
000003c0: baed 053b 6499 8dbd 997f 563d efab eabb
000003d0: dd08 d53c 4fec e9bc c2a5 e6bd 357e 97bd
000003e0: eabc 633b beb5 853e 9f71 fd3b 3867 313c
000003f0: 470b b63d 9295 79bc 10aa 32bd 7e00 333e
0.06713736 0.11327227 -0.18025795 0.1378087 -0.17034218 -0.09313031 -0.08932257 0.022585375
-0.02294202 0.050804228 0.051886883 -0.013113572 0.035866417 0.13813192 -0.18847878 0.013499008
-0.28246337 -0.6388271 -0.07298426 -0.057168428 -0.046906408 0.006002948 -0.015075309 0.075878546
0.0038984984 -0.4020483 0.0046063634 -0.035403393 -0.06529194 0.020214606 0.09875046 0.02286234
-0.13965227 -0.015842201 -0.1597672 0.033828747 -0.025216306 0.14028867 0.047169477 0.025289167
-0.015185728 0.0057129213 0.016456874 -0.0023979163 -0.15228295 0.024137791 -0.124993175 -0.08578298
-0.119115785 0.09916305 -0.034125682 0.07737322 0.009350136 0.11914034 -0.5647451 -0.018275887
-0.05481529 0.034271915 -0.07151733 -0.12335437 0.034030683 0.05384471 0.06554086 0.062642485
-0.20549756 -0.084114105 -0.36769077 -0.15906018 -0.1362679 -0.030850723 -0.034583993 -0.060084056
-0.27682123 -0.26762405 0.009453829 -0.14369234 -0.14424525 -0.2249973 -0.0008197549 0.13468485
0.05678228 0.055909123 0.09255242 0.032870233 0.049563635 -0.0038049242 0.06696968 -0.134652
-0.19943476 -0.03095219 0.075991616 0.024392957 0.039197728 0.17543106 -0.029812003 -0.022183206
0.053355105 -0.16999498 0.35858718 0.044639047 0.047534287 0.055559173 0.03541167 0.043522514
0.10122924 0.40495893 0.0069701015 -0.038660116 -0.053231057 0.11749218 0.18400227 0.013199435
0.11631858 0.009792221 -0.08471916 0.06644736 0.039737288 0.13960655 -0.015988708 0.0077123162
0.019553613 0.12330731 -0.09659366 0.048456673 -0.0663156 -0.003648739 0.05269924 -0.0078021395
-0.13693315 -0.083318874 -0.020738082 0.1058377 -0.18427654 -0.19911404 0.029410845 0.09000059
0.14561094 -0.07690098 0.019331193 0.0484985 0.087014414 0.058825094 -0.03588818 -0.043139733
0.06979667 -0.03181869 -0.27187216 -0.029872254 -0.13883561 0.058356013 0.032963376 0.021011872
0.06185083 0.104945235 0.060225792 0.0737629 0.057036545 -0.122987606 -0.013403964 -0.0012858233
-0.065330036 -0.028046452 0.06233391 -0.23516548 0.03378207 0.13420478 -0.07761443 -0.18993926
-0.087851495 0.073267676 -0.1356082 -0.017809397 0.018333819 -0.16377392 0.1682258 0.07614105
-0.0036269536 0.06847488 -0.0010738991 -0.11326085 -0.08107869 -0.15854548 0.02383198 -0.1464598
-0.11782379 0.09887577 -0.2400747 -0.09595587 0.10844308 -0.031927064 -0.04033312 0.062338468
0.047240373 -0.09556703 0.032953143 -0.031977966 -0.16215868 0.12032709 0.0061026867 -0.04232746
0.026058454 0.040413126 0.0800707 -0.17521954 -0.10976697 0.10515175 0.07819854 -0.23968035
-0.020984832 0.16824555 0.034269758 -0.082514964 -0.022707365 -0.0048473366 -0.020015597 -0.2607806
0.034321077 -0.0678699 -0.05630851 -0.020634944 -0.305395 0.024437215 -0.24946076 0.0320672
0.030432647 -0.024684936 0.1403787 -0.15463421 0.03988843 0.04049074 0.14455539 0.14967586
-0.01189853 0.13747148 -0.0771202 -0.01104361 -0.0013326914 0.07039516 -0.10526602 0.017860524
0.0020435886 -0.069140226 0.05236778 -0.0071616094 0.026005203 -0.028555064 -0.112620845 -0.07397119
0.0034750053 0.2611522 0.007734492 0.010827832 0.0888887 -0.015233414 -0.043619215 0.17480657
